model.pt (torch, 2868 bytes, 6 tensors)

fc1.weight f4 [8, 4]
00000000: 80f0 86be baf8 8bbe 18df 993e 3c60 a9be
00000010: c0ae 70be 8242 8b3e 1a5e bebe 6419 7b3e
00000020: a7ae 353f 9b41 a7bd 173a 2b3f 14bf 593f
00000030: 3086 fe3e eb88 db3e f5b1 60bf 658d 87be
00000040: e3a6 2a3f 7b3b ef3e 7a29 4ebf e5b7 70bf
00000050: 5409 e2be 7aa7 a93e 70b9 31bd 6661 b03e
00000060: 50a1 2d3f bd31 983e 160d 22bf 06dc e0be
00000070: 9842 a4be 4892 e3bd ec2f 983e de66 8bbe
-0.26355362 -0.273382 0.3005302 -0.33081234 -0.23504162 0.2719918 -0.3718117 0.24521405
0.70969623 -0.0816681 0.66885513 0.8505719 0.49711752 0.42877898 -0.8777154 -0.26475063
0.666609 0.46725067 -0.8053204 -0.940306 -0.44147742 0.33135587 -0.043389738 0.3444931
0.6782427 0.29725447 -0.6330122 -0.43917865 -0.32082057 -0.11111885 0.2972406 -0.2722692

fc1.bias f4 [8]
00000000: 6061 c8bc 30fc 8abd 18a1 c3bd b868 7f3f
00000010: cd09 713f 2c3b 40be e617 8d3f cc85 26be
-0.024460495 -0.06786382 -0.095522106 0.99769163 0.9415558 -0.18772572 1.1022918 -0.16261977

fc2.weight f4 [8, 8]
00000000: 3224 153e fecf 153e 4a66 a4bd 5008 ccbe
00000010: db56 863e a440 a7bd be5a 2f3e 7b24 59be
00000020: b0c5 13bd 2730 9b3e 1e13 9dbe e08e 5f3c
00000030: 8023 97bb cab6 9abe 7042 8cbd 4aed a5be
00000040: f871 9c3d 90e2 733d 57b8 0b3f 2d26 ffbe
00000050: b7d0 68bf f287 02be 3961 4ebf fbd2 8c3e
00000060: 280a e83d 9d3b b4be 62fa 48be cbd1 f03e
00000070: c66a 5f3f d8ca d3bd 5fb5 8a3f a8be df3d
00000080: 3f18 a3be ac4c 983d 0447 a5bd 563b 353e
00000090: 755f 9bbe d0e1 d3bc 4645 6f3e ea4d 003e
000000a0: 7e59 2a3e ab43 993e a1b5 163f dd56 a2be
000000b0: afc3 afbe 70a0 be3c acf1 7a3d 0cfc a6bd
000000c0: d094 3e3d 80ff a03b eb3d 67be 50e2 4a3f
000000d0: f091 253f c7f6 99be 8061 813f 9aa1 efbd
000000e0: 0888 0d3d bd24 a4be d369 373f 870f 04bf
000000f0: b0e2 e5be 6565 9b3e ac69 90bd f5ee 963e
0.14564589 0.14630124 -0.080273226 -0.39850092 0.2623814 -0.08166626 0.17124459 -0.21205322
-0.0360772 0.30310175 -0.30678648 0.013644904 -0.004612386 -0.30217582 -0.068486094 -0.324076
0.07638925 0.05954224 0.54578155 -0.49833813 -0.90943474 -0.12747172 -0.806171 0.27504715
0.11330062 -0.3520173 -0.19626763 0.4703506 0.872723 -0.10341424 1.08366 0.10925037
-0.31854436 0.07436499 -0.08070186 0.17698416 -0.30346265 -0.025864512 0.2336627 0.12529722
0.16635701 0.2993444 0.58870894 -0.31706896 -0.34328982 0.023269862 0.061265633 -0.08153543
0.046528637 0.0049132705 -0.22582214 0.79251575 0.6467581 -0.3007109 1.010788 -0.11700745
0.034553558 -0.3205928 0.7164585 -0.5158619 -0.4489951 0.30350795 -0.07051405 0.29479185

fc2.bias f4 [8]
00000000: 3fa6 85be 2f66 a8be 1479 01bf 5423 a63e
00000010: c87a e1bd f2c0 923d bc54 1d3f 765f 143f
-0.26103398 -0.3289046 -0.50575376 0.32448828 -0.11009747 0.07165708 0.6145742 0.5795816

out.weight f4 [3, 8]
00000000: d1a7 90be 3c08 52be 49a7 41bd 723b f63e
00000010: 243c ccbd e099 34bf b91d f03e 02ca 59bf
00000020: 1aab 703e 071d 26be 4503 82bf 00ab 8a3e
00000030: 0e7c 243e fd37 013f 77fa 8b3c fb3e 973d
00000040: 23b2 7a3e f47f 99bd 27af 683f ec91 81bf
00000050: c0f2 67be 121b f23e 1a7c 56bf 4209 0b3f
-0.28253034 -0.20510954 -0.047278676 0.48092228 -0.099724084 -0.70547295 0.46897677 -0.85073864
0.2350277 -0.1622201 -1.0157248 0.27083588 0.16062948 0.50476056 0.017087204 0.073850594
0.24482016 -0.07495108 0.9089226 -1.0122657 -0.22651196 0.47286278 -0.83783114 0.54311

out.bias f4 [3]
00000000: 160a c73d 3dcc 803e 5669 e8be
0.097187206 0.2515582 -0.45392865
